saved_parameters/imagenet200_simsiam_pretrained_model_bn.pth (torch, 109619 bytes, 80 tensors)

bn1.weight f4 [64]
00000000: 3f41 5d2e adac 081f d013 ba3c 57bd 8e3d
00000010: 147c 053d 013c d125 131c be3c 73e8 ea3c
00000020: eef3 d59a 0299 bd3c bf5c 5d3c 82c8 e913
00000030: 4bf7 ab3c 2e9a 0c28 1812 8a1f 1a9a b93c
00000040: 6fb3 791e 4bea e43c 6a6a fd16 9529 d53c
00000050: 25ef c01d 4489 053d a73e 8b3c 0f93 2519
00000060: 33f4 b82c d826 1916 c5e2 e43c 9daf 2a3c
00000070: 5940 653c f601 ca3b 4e7b 2e3d c0b3 782e
00000080: 787e 993c 5a58 973c 2d7c 9016 c03b a816
00000090: c763 923c 9cd7 a43c 223e 523d faf4 9515
000000a0: 50c8 cca3 ec10 d73c 5316 f93c 1d82 923c
000000b0: 7425 ac3c 13c2 c921 a1d8 073d 4650 4418
000000c0: f090 263d 0b3d 0917 1d95 7119 2bc7 993c
000000d0: 0979 af3c bc9f 6a1c 66be aa3c 8848 a41b
000000e0: 7daf 9911 8291 2e3c 1b4c 9b14 5203 143d
000000f0: 654a 7d12 801a c71a 8731 5c16 d450 983c
5.0307532e-11 2.8941954e-20 0.022714525 0.069697075 0.032589033 3.629638e-16 0.023206746 0.028675294
-8.8488825e-23 0.023144249 0.013510882 5.9015185e-27 0.020991942 7.8049936e-15 5.847521e-20 0.02265649
1.3219056e-20 0.02794375 4.094151e-25 0.026020804 5.1069246e-21 0.03260161 0.016997648 8.559998e-24
5.256706e-12 1.2371499e-25 0.027940163 0.010417846 0.013992392 0.0061647845 0.04259806 5.654832e-11
0.018737063 0.018474746 2.334282e-25 2.7179571e-25 0.017869843 0.020122342 0.051328786 6.0567126e-26
-2.220256e-17 0.026253186 0.030406153 0.017884308 0.021013953 1.3671661e-18 0.033165578 2.5372934e-24
0.040665567 4.4344135e-25 1.2489521e-23 0.018771729 0.021420019 7.7630557e-22 0.020842742 2.7178396e-22
2.4247297e-28 0.010654809 1.5681019e-26 0.03613598 7.992442e-28 8.2347284e-23 1.7787087e-25 0.01859323

bn1.bias f4 [64]
00000000: 4f1c c0af f65f cda0 774d 7e3c abd3 9abd
00000010: 30f9 473c 0808 93a6 8f4e 3c3d bc34 b13c
00000020: b20c c79c 3b5d 803d 3fd4 ca3c 4a64 bf94
00000030: 5f04 8e3c 4b3b 6ea9 9bed 75a0 8678 09bc
00000040: 63b6 7d9f c8d1 223c 4813 f798 aba6 973c
00000050: 3db1 459f 5f9a 673c 05c1 f43c 6646 7c9a
00000060: 7d47 aaad 20df 8f97 dcfb 393b 9d25 3a3b
00000070: 4efe 493d cef0 c83b 0d9f 7abd fbc2 0caf
00000080: f269 9f3c 3f04 923c e765 c697 4c1d db97
00000090: f7e7 b53c 6a2e 1cbc 4147 b9bd 1347 9096
000000a0: 1be5 c8a6 1ef4 6dbc 518e b13a 6964 f03c
000000b0: b086 7c3b e4c1 47a3 c282 4b3c 3f30 4899
000000c0: 8f7c 32bc d394 c797 b4b9 489a b412 833d
000000d0: fea3 8e3c 7519 a99d aa4e b93c ca98 879c
000000e0: a9d6 c393 076f 493c eb4a 2b96 7ade 25bd
000000f0: 1eb1 0694 aa92 9b9b a697 a497 2f44 c53c
-3.494471e-10 -3.4791852e-19 0.015521399 -0.07559904 0.012205407 -1.0202351e-15 0.045973357 0.021631591
-1.3171997e-21 0.06267782 0.02475941 -1.9325628e-26 0.017336069 -5.2898044e-14 -2.0830924e-19 -0.008390551
-5.37257e-20 0.009937711 -6.3867473e-24 0.01851209 -4.186298e-20 0.014135926 0.029877195 -5.2169246e-23
-1.935851e-11 -9.297483e-25 0.002837888 0.0028403767 0.04931479 0.006132222 -0.06118684 -1.2802197e-10
0.019459698 0.01782429 -1.2821174e-24 -1.4159939e-24 0.022205336 -0.00953255 -0.09046794 -2.330931e-25
-1.3939887e-15 -0.014523534 0.0013546442 0.029344754 0.0038532428 -1.08288696e-17 0.012421312 -1.0349501e-23
-0.010893955 -1.2897642e-24 -4.150904e-23 0.06400052 0.017412182 -4.476025e-21 0.022620518 -8.973046e-22
-4.943659e-27 0.012294537 -1.383691e-25 -0.040495373 -6.800201e-27 -2.5737378e-22 -1.0636533e-24 0.024080364

bn1.running_mean f4 [64]
00000000: f90d bbae cbd4 d61c 6b1d 0e39 f8c4 a53a
00000010: 66cf 7638 4d36 3f25 e84d 77b9 8bd5 e939
00000020: 671d 1c9c e4aa 48ba fda8 fa39 d4af ff12
00000030: d521 363a 167c 0b28 9006 ca9e 1da3 53ba
00000040: e825 8b9c e9b8 6dbc 5535 9897 2424 2bbc
00000050: c5e9 bf9c b362 dd38 04a3 0739 a150 3d19
00000060: 8caa 8d2c 7b43 7216 bd7b d73b 9cc9 b7bb
00000070: 2c59 053c f16f b639 c9af f6ba 83f4 cd2d
00000080: 449e 9ab9 f210 23bb c554 a496 3299 5a16
00000090: c472 29ba 3fd3 713b 53ed 16bc 000f 0415
000000a0: a8a8 a424 529c 843b e7f5 613c ff8b 9eba
000000b0: 0124 aa39 73ae a721 1879 433a 032a 9d97
000000c0: 6887 603c 6477 4016 17b0 ef18 3ec4 5d39
000000d0: 3967 143c 453e ec1b 748d 32b8 7e5f f59a
000000e0: 7790 f490 eac6 313a e1db c313 c50e d83b
000000f0: 9427 bb92 8bd3 011a b03e 8d96 ee1f b038
-8.5062575e-11 1.4216338e-21 0.00013553134 0.0012647202 5.8844125e-05 1.6585007e-16 -0.00023584778 0.00044600325
-5.165407e-22 -0.0007654859 0.00047809622 1.6136107e-27 0.00069477904 7.742957e-15 -2.1390296e-20 -0.0008073317
-9.208047e-22 -0.014509418 -9.836233e-25 -0.010445628 -1.2699748e-21 0.00010556485 0.00012935331 9.787354e-24
4.0263955e-12 1.9569897e-25 0.00657603 -0.0056087505 0.008138936 0.00034797148 -0.0018820699 2.3414387e-11
-0.00029491086 -0.0024881926 -2.6549126e-25 1.765824e-25 -0.000646394 0.0036899594 -0.009211856 2.666902e-26
7.140938e-17 0.004046955 0.013791538 -0.0012096165 0.00032451752 1.1362536e-18 0.0007456704 -1.0156492e-24
0.013704158 1.554731e-25 6.1957857e-24 0.00021149308 0.009057813 3.9083166e-22 -4.2570246e-05 -1.014839e-22
-9.6463614e-29 0.00067816547 4.9441738e-27 0.0065935575 -1.1811116e-27 2.6847458e-23 -2.281934e-25 8.398281e-05

bn1.running_var f4 [64]
00000000: bdc8 e122 3a3e 8204 0576 393b b0e6 893c
00000010: 7c9c be3d 8d0d 9b0e b098 c43a 03fd 9f3d
00000020: 32b2 0000 452e bc39 c329 5839 0400 0000
00000030: a71e 263b 8784 db13 e5d5 ad01 a987 ae3b
00000040: 99de 2201 ee46 513c 0400 0000 6236 7c3c
00000050: 8888 5e01 9f7d b23d bf40 193a 2c00 0000
00000060: 5092 e81d 0400 0000 6182 2e3c e02b 303b
00000070: 2643 ca3c 9450 713b 4bcf 983b e688 3e20
00000080: 0bbc d03a 1931 133b 0400 0000 0400 0000
00000090: fea9 9f3a e821 2f3b e081 143c 0400 0000
000000a0: 69ad 4211 fa2d 823b 7b38 2b3c da3a a639
000000b0: 3e41 d53c 7177 0b09 197a af3d 0400 0000
000000c0: 123e 3a3c 0400 0000 2200 0000 932d 1e3a
000000d0: 6e8f 983b 07b1 0000 b1b9 e93a f81e 0000
000000e0: 0400 0000 165c 033c 0400 0000 eb0e b43b
000000f0: 0400 0000 ce00 0000 0400 0000 27b7 313a
6.1198912e-18 3.062e-36 0.0028299105 0.016833633 0.09307191 3.82235e-30 0.0014999118 0.0781193
6.3924e-41 0.00035892628 0.00020614923 6e-45 0.002534786 5.5414054e-27 6.3857087e-38 0.0053262305
2.9914407e-38 0.012773259 6e-45 0.015393825 4.0872917e-38 0.087153666 0.0005846135 6.2e-44
6.1561172e-21 6e-45 0.010651202 0.002688162 0.024690222 0.003682171 0.004663383 1.6138922e-19
0.0015925182 0.0022459684 6e-45 6e-45 0.0012181399 0.002672309 0.009064168 6e-45
1.5357338e-28 0.003972766 0.010450478 0.00031705835 0.026032086 1.6787677e-33 0.0856821 6e-45
0.011367338 6e-45 4.8e-44 0.0006034013 0.00465577 6.3505e-41 0.001783183 1.111e-41
6e-45 0.0080175605 6e-45 0.0054949424 6e-45 2.89e-43 6e-45 0.0006779306

layer1.0.bn1.weight f4 [64]
00000000: 3541 0e3d d7c0 053d d68b 353d 799c 413d
00000010: 30ca 8b3d 9850 193d 173b 6c3d c622 423d
00000020: 6f0e 113d 6de9 513d 26a1 bc3c 919d 173d
00000030: 6a05 d73c 6262 fc3c 9ba0 013d f2f4 b73c
00000040: c9a7 863d 27f5 b33d 86f6 9f3d fef9 163d
00000050: 9f46 373d 7b52 2e3d 1371 073d 80aa 193d
00000060: 33cb 133d af49 0b3d d6c2 0d3d d39d 3a3d
00000070: c5ac 053d 4560 703d 53e3 063d 40f1 513d
00000080: edff e53c f28d 293d aa3b 513d 2ae2 bc3c
00000090: 48c4 063d 327e 1d3d b2bb 003d cd97 423d
000000a0: 242f 1b3d f5d1 083d 42bc 213d 8fa8 163d
000000b0: 18b9 2a3d 0ff3 053d b0f7 123d 36d0 c13c
000000c0: 7ea9 e73c ecfa 1b3d 8609 ff3c be06 4d3d
000000d0: bf6d 3a3d 09db 653d 84d7 1b3d 0747 323d
000000e0: 5abc 503d df98 8c3d 709d 093d c6b3 033d
000000f0: 959a c13c 755c 023d e8c6 103d 676d 673d
0.034730155 0.03265461 0.04432281 0.047268365 0.068256736 0.037430376 0.05767354 0.047396444
0.035414156 0.051248003 0.02302606 0.0370155 0.026247699 0.030808631 0.031647306 0.022455666
0.06574971 0.087869935 0.078106925 0.036859505 0.044745084 0.04255913 0.03306682 0.037516117
0.036082458 0.034005817 0.03460964 0.04556067 0.03263547 0.05868556 0.032931637 0.051255465
0.028076136 0.041395135 0.05108229 0.023057062 0.032902032 0.038450427 0.031429 0.04750805
0.037886754 0.033403356 0.039486177 0.036781844 0.041680425 0.032702502 0.035880744 0.023658853
0.028279062 0.038081095 0.03113247 0.050055258 0.04551482 0.05611709 0.03804733 0.04352477
0.050960876 0.06865095 0.03359741 0.032153867 0.02363328 0.031826455 0.03534594 0.05650082

layer1.0.bn1.bias f4 [64]
00000000: 52ad e03b bb78 2ebb cb0e 123b 73d7 aebc
00000010: 27aa 12bd 32b8 8cbb 8851 cfbd b283 07bc
00000020: 89d5 dfba 2968 0cbc ffb6 4d3c 3adb 163c
00000030: 23a4 45ba 0cdf 563c ff33 d738 5538 373c
00000040: 1c97 19bd a487 5ebd 6da5 0fbd f398 97ba
00000050: 6e61 083d 24c6 8bbb a998 e23a 6fe6 f338
00000060: 4426 263c 9683 0d3c 46bc 8c3b 4d3b fcbc
00000070: c733 a83b 0127 22bd 514d 36ba cc87 1bbc
00000080: fab4 a83a 0051 8c3c 22fe 0f3d 573e 043c
00000090: fe7d e0b9 ca4d 153c f73e 123c 3d9f cfbc
000000a0: 60ec 71bb 8546 cd3b 998c 923b 6ab0 0fbc
000000b0: 70a1 aebc 794a 013c a5ee 1239 7f9a a73c
000000c0: 66b1 a73b 264e 2d3c 7070 0c3c 0638 53bc
000000d0: 9d4f f1bc 54b6 7dbc 6ec0 b33b 5bdf d93c
000000e0: 394c f1bc c672 04bd 5adb d7b9 6770 dc3b
000000f0: 5804 e63b 0175 c73b bcf8 ae3a ba05 4abc
0.006856599 -0.0026622254 0.002228665 -0.021342969 -0.0358068 -0.0042944187 -0.10122973 -0.008271145
-0.0017077188 -0.008569756 0.012555837 0.009207541 -0.0007539412 0.013114702 0.00010261684 0.011182864
-0.037497625 -0.054328576 -0.03506987 -0.0011565968 0.03329604 -0.0042655636 0.0017287928 0.000116300645
0.010140959 0.00863733 0.004294905 -0.030789996 0.0051331255 -0.03958798 -0.000695427 -0.009492826
0.0012871318 0.017128468 0.03515447 0.008071504 -0.0004281848 0.009112785 0.008926145 -0.025344485
-0.0036914572 0.00626451 0.004472327 -0.008770088 -0.021317214 0.007891291 0.00014012547 0.020459412
0.005117583 0.010577714 0.008571729 -0.012891775 -0.029456908 -0.015485365 0.005485586 0.026595762
-0.029455291 -0.03233602 -0.00041171425 0.0067272666 0.007019561 0.006086946 0.0013349275 -0.012330467

layer1.0.bn1.running_mean f4 [64]
00000000: 5724 e5ba 060f 81bb df22 d6ba 251d 28bc
00000010: 06a5 46bb 77fb 86bb 91ff 3e3a ba6d 09bb
00000020: 975e 54ba e9b6 8aba d5a2 b1bb 9c80 1bbb
00000030: 9823 b839 59c8 533a 655e 1abb d915 debb
00000040: 5b76 4dbb c16d deba 9b57 e3ba 262f 0ebb
00000050: 93ad 16bb bd4e 28bb 99f5 76ba 14b5 18bb
00000060: f180 57ba 464c aaba 0129 89ba b45c 2c3b
00000070: 7cef 4bba f238 42bb 45ef cfbb afc4 8dba
00000080: d1c8 c639 c8d9 4cbb e845 1dba 581d a0bb
00000090: 86fc 09bb d024 17ba 29ad 1cb8 48df 4fba
000000a0: fd72 c2ba b3c3 9f3a 6f54 20ba 7207 05bb
000000b0: c680 4f3b 1d4c 66bb 2358 1ebb 2ddf b3bb
000000c0: 07c3 96ba c39a 25ba c7d9 af39 1791 45bb
000000d0: 1f8c cc38 f12f 81b9 8987 77ba 2601 37bb
000000e0: 824a cdba 5f48 13ba 1128 bebb 4b34 15ba
000000f0: 7249 e6bb 0f67 06bb ddc1 37bb a4cf beba
-0.0017482144 -0.0039385585 -0.0016337297 -0.010260855 -0.0030310764 -0.0041193324 0.0007286007 -0.0020969943
-0.0008101253 -0.0010583076 -0.0054210224 -0.002372778 0.00035121734 0.00080788654 -0.0023554799 -0.006777507
-0.0031351063 -0.0016969965 -0.0017344834 -0.0021695583 -0.0022991642 -0.0025681697 -0.0009420752 -0.002330129
-0.0008220813 -0.0012992702 -0.0010464491 0.0026300373 -0.00077795214 -0.0029635993 -0.006345662 -0.0010816063
0.00037915123 -0.0031257737 -0.00059994916 -0.0048863105 -0.0021055057 -0.00057656784 -3.7354566e-05 -0.0007929695
-0.0014835295 0.001218906 -0.0006116097 -0.0020298627 0.0031662448 -0.0035140582 -0.002416142 -0.005489251
-0.0011502214 -0.0006317312 0.00033540858 -0.0030146295 9.7535776e-05 -0.00024640516 -0.00094424986 -0.0027924269
-0.0015662464 -0.0005618389 -0.005803116 -0.0005691691 -0.0070277983 -0.0020508205 -0.0028039136 -0.0014557731

layer1.0.bn1.running_var f4 [64]
00000000: e8f9 8436 581e 1d37 1be3 3637 d309 dd36
00000010: b24d a837 0579 e536 2946 b636 9571 0e37
00000020: 929a 1337 ec07 2736 e289 9136 7ef5 8037
00000030: 42aa cc36 6940 3937 857e 2038 7d27 c637
00000040: 700f 7b37 e8e6 5d37 87ce a837 36be a637
00000050: 0c66 0f36 5f03 7437 057c d736 31a8 2637
00000060: e90c 1d37 0e38 0c37 2e19 8737 6928 9e36
00000070: 6cd0 2737 3631 f236 0ba4 9f37 2aeb 4b36
00000080: 4688 2737 2bb5 cc36 6c7c 1236 0fe9 c537
00000090: 1a9b 1038 825f 6137 0e9e bc36 108f 3937
000000a0: f913 1238 71a1 6c37 8b02 9837 51e9 6637
000000b0: a070 8c36 8851 1e37 82f5 db36 403d fb36
000000c0: 1ae5 5437 4d76 5337 2407 9e36 4621 db36
000000d0: c8d4 5437 80d4 1836 1125 4337 1f1b 4836
000000e0: 0b4b 7e37 abd9 2c36 bde5 bd36 fc95 d736
000000f0: cfbe ad37 e1af 1637 68f2 f736 11d0 9536
3.9629995e-06 9.364994e-06 1.09009225e-05 6.587457e-06 2.006334e-05 6.8388204e-06 5.4321904e-06 8.490305e-06
8.7978715e-06 2.488955e-06 4.3373884e-06 1.5373105e-05 6.0994944e-06 1.1041856e-05 3.8264803e-05 2.3621827e-05
1.496436e-05 1.3226389e-05 2.0123332e-05 1.9877316e-05 2.136806e-06 1.4544318e-05 6.421937e-06 9.933531e-06
9.360935e-06 8.3577015e-06 1.610498e-05 4.7134713e-06 1.0002503e-05 7.217891e-06 1.9030665e-05 3.038624e-06
9.985704e-06 6.1007645e-06 2.1828118e-06 2.3592756e-05 3.4476725e-05 1.3433282e-05 5.6212366e-06 1.1060169e-05
3.4827714e-05 1.4104285e-05 1.8120996e-05 1.37633915e-05 4.1854364e-06 9.436517e-06 6.5552895e-06 7.4875134e-06
1.2689527e-05 1.2604124e-05 4.709598e-06 6.530582e-06 1.2685727e-05 2.2773456e-06 1.1631536e-05 2.981811e-06
1.5157052e-05 2.5756697e-06 5.659384e-06 6.42496e-06 2.071206e-05 8.981647e-06 7.3893934e-06 4.464768e-06

layer1.0.bn2.weight f4 [64]
00000000: f108 633d 45ea 313d c5a3 653d 37e6 613d
00000010: 6cc2 d43c 068d 0f3d 938e 0d3d 29cc 863c
00000020: df4b 153d b6a2 a83d 4091 963d 2fe3 113d
00000030: bb6c 4a3d 6c62 003d d00d 413d 59ca 113d
00000040: d1e1 393d 4e25 813d 1996 203d 3fbc 863d
00000050: 06fe 303d bb4d c03c 4319 4a3d 25bb 443d
00000060: 63aa 3e3d cf32 423d 7d51 813d 34aa 583d
00000070: 4c4c f53b 5e7d 403d cd8a 073d 0d50 613d
00000080: 6d55 773d e4f6 1c3d 9593 3e3d 5b1b 543d
00000090: fb1b 3d3d 6bae 243d edbe 263d ad2f 8e3d
000000a0: 7eee 5e3d 571c 723d 5ec1 643d 149d 753d
000000b0: 2ba8 503d 60ad 513d 58cf ae3c bbf6 423d
000000c0: 6a24 803d 7e69 2d3d 4e32 503d dd8b 763d
000000d0: 63bc 313d 3435 5e3d e508 683d 22d3 573d
000000e0: 8189 5c3d 1727 443d dfa5 433d b01f 593d
000000f0: ebbb 663d 21fd 7b3d 3e86 3b3d 3863 303d
0.05542845 0.043436307 0.056064386 0.05515119 0.025971614 0.0350466 0.034559797 0.016454773
0.03644931 0.0823416 0.07351923 0.03561705 0.0494201 0.031343862 0.047132313 0.035593364
0.04538137 0.063059434 0.039205644 0.06578874 0.043211006 0.023474565 0.049340498 0.048030037
0.046549212 0.047411736 0.06314371 0.052896693 0.007485902 0.04699456 0.033091355 0.055007983
0.060384203 0.03832139 0.046527464 0.0517839 0.046169262 0.0402054 0.040709425 0.06942687
0.054426663 0.05910906 0.05584847 0.059964254 0.050941627 0.051190734 0.021339104 0.04759858
0.062569454 0.042336933 0.050829224 0.060191978 0.04339255 0.054249957 0.056649107 0.052691586
0.05384207 0.04788884 0.04776561 0.053008735 0.056331556 0.0615207 0.04578232 0.043063372

layer1.0.bn2.bias f4 [64]
00000000: d667 5a3b 19cb 0b3b 9911 ebbc 13ec 39bd
00000010: ad2d 12bc 4bff 00bc 4bd5 38bd fef8 91bb
00000020: 0b84 193c d873 2cbd f364 713b 14f3 0c3c
00000030: 50c1 4439 2df8 6c3c c23a 9cba 5e2d ebbb
00000040: d4ca 12bc 0087 05bb 670b 803b e222 d1bc
00000050: c906 4bba f316 05bc 7dd3 e7bc 3b41 513c
00000060: 55bc f2bb fe83 ec3b 1445 50bb 8217 2ebc
00000070: e64d 7dba 02cb 673a a44a 3fbc ddc7 41bb
00000080: 147e a03c 1545 60bc fdd8 0f3c 7690 2cbb
00000090: 3d70 05bd b9cd 12bc 365c 5bba 7884 b53b
000000a0: 6638 bcbb 1edf cf3a 8164 6cbc 57e2 a9bc
000000b0: 67ee 87bc 5c57 29ba 55f5 dabb 7654 2e3c
000000c0: 15f0 f0bb fdda 303b 3c0e 5dba f853 abbb
000000d0: ca35 c9bc a3f6 5bbc 6a4e f5ba b724 3fbc
000000e0: b493 49bc 8b67 cfba 5af2 e0bb cacc 923c
000000f0: da8f d5bb 62ca f53c ed83 aebb b78e d9bc
0.0033326051 0.0021330772 -0.028694915 -0.045391154 -0.008922023 -0.007873367 -0.045125287 -0.004454731
0.00936986 -0.042102665 0.0036833852 0.008602876 0.00018764031 0.014463467 -0.0011919367 -0.007177039
-0.008959491 -0.0020374656 0.0039076093 -0.025529329 -0.00077448465 -0.008123147 -0.028299088 0.0127719
-0.007407705 0.007217883 -0.0031779455 -0.010625722 -0.0009662792 0.0008842201 -0.011675511 -0.002956859
0.019591369 -0.013688345 0.008779761 -0.0026331223 -0.032577742 -0.008960181 -0.00083679275 0.005539473
-0.005744028 0.0015859341 -0.014428259 -0.02073781 -0.016593171 -0.0006459856 -0.006682078 0.010640254
-0.0073528388 0.0026985996 -0.0008432602 -0.0052285157 -0.024561781 -0.013425502 -0.0018715386 -0.011666468
-0.012303282 -0.0015823705 -0.006864828 0.017919917 -0.0065173926 0.03000373 -0.0053257854 -0.02655731

layer1.0.bn2.running_mean f4 [64]
00000000: cda6 2dbb 9c12 5839 ae51 ecba dbc1 f0b9
00000010: 2857 e7ba 798f 8a3b b062 45ba c527 cf38
00000020: a689 b9b9 2d64 a9ba a771 4bba c7db 8eba
00000030: d04f 94b9 9958 adba 2817 d038 71af 593a
00000040: 75c2 edba 55b5 efba 2de6 8aba 57ab 48bb
00000050: 82f1 3bba 46d9 2b39 3bba 163a ac5f fab8
00000060: 517e 73ba 1356 45bb 265b 39bb 7bab 35bb
00000070: b929 5f3a ba8d e8ba b3f7 403a 6b27 d7ba
00000080: c5e1 d5b9 a18a c0ba a69f 36bb e0fe 55bb
00000090: 8609 793a be3b 2ebb 409f a33a 17f0 fbba
000000a0: 4108 d0ba 8024 c0ba 334a bdba 4a37 8739
000000b0: a39e 50bb 198a 0cbb 7b0c d7b9 f9cc 13bb
000000c0: 3ee6 47ba f971 1dbb 491d 5cba 18a2 b3ba
000000d0: c909 33bb 44b5 1dbb d7cb 7bba f467 0ebb
000000e0: 9c12 22ba 7084 a5ba 85e0 2fbb c3da ebba
000000f0: c7e6 f4ba 246b 5bba c2dc 2e3b e83a 94ba
-0.0026497126 0.00020606298 -0.0018029714 -0.000459208 -0.0017649876 0.004228529 -0.0007529659 9.877937e-05
-0.00035388506 -0.0012923531 -0.0007760771 -0.0010899239 -0.00028288225 -0.0013225257 9.922526e-05 0.0008304036
-0.0018139618 -0.0018288294 -0.0010597162 -0.0030619705 -0.00071694714 0.00016388771 0.00057497964 -0.00011938749
-0.0009288537 -0.0030111119 -0.0028283088 -0.0027720619 0.0008512992 -0.0017742433 0.0007361129 -0.0016414946
-0.00040794737 -0.0014689752 -0.0027866154 -0.0032653138 0.00095000153 -0.0026585902 0.0012483373 -0.0019221333
-0.00158716 -0.0014659315 -0.0014441669 0.000257904 -0.0031832836 -0.0021444617 -0.00041017294 -0.0022552593
-0.00076255563 -0.0024024232 -0.0008396698 -0.0013704924 -0.0027319065 -0.0024064342 -0.00096052646 -0.0021729441
-0.00061825826 -0.001262797 -0.0026836705 -0.0017994273 -0.00186845 -0.0008370152 0.0026681875 -0.0011309059

layer1.0.bn2.running_var f4 [64]
00000000: 9991 a037 f053 6137 3c56 ec36 c11d 2b36
00000010: d77a ef37 9627 1336 4d84 cc35 2a82 7b37
00000020: 1e00 bc36 3597 d836 bce1 9936 637c d636
00000030: 35d2 9536 72c9 c936 005e 5137 fba1 7f36
00000040: a02d ad36 f6d3 ba36 ed9f c836 ec1a e536
00000050: 1592 1537 e4d2 db37 b6fa af36 ba90 e836
00000060: fec5 4f36 e26f 2d37 4a22 7c37 3cff 0a37
00000070: 31a2 fe36 0f97 7037 93dd a535 e055 be37
00000080: fbd3 6136 5c0e cf36 ee1c 2d37 57bf 4237
00000090: 79ce ee35 3976 4236 c456 b335 1735 4037
000000a0: e815 ad37 ffb6 a036 811d 8d36 562a 6837
000000b0: f4ed dd37 84a3 7837 e4ae bb37 f522 fc36
000000c0: 9d31 ce36 e1b0 3937 a935 0d37 c2b9 5436
000000d0: 42c6 2337 7d0d 8336 cec4 9536 f8fa 5736
000000e0: eda7 aa36 bdb6 f736 911c 2437 e04e 0b37
000000f0: 5776 8f37 1867 9736 0dba 1b36 9145 3d36
1.9141286e-05 1.3430588e-05 7.043387e-06 2.5498305e-06 2.8548222e-05 2.192775e-06 1.5237689e-06 1.4991072e-05
5.6028503e-06 6.4549045e-06 4.5860343e-06 6.3921775e-06 4.4650174e-06 6.013718e-06 1.2479257e-05 3.8092246e-06
5.161113e-06 5.5679075e-06 5.9790823e-06 6.827866e-06 8.915104e-06 2.6205038e-05 5.244593e-06 6.930987e-06
3.096065e-06 1.0337653e-05 1.5028354e-05 8.284867e-06 7.5886715e-06 1.4340286e-05 1.2357945e-06 2.2689754e-05
3.3651002e-06 6.1707524e-06 1.0318339e-05 1.1607851e-05 1.7792473e-06 2.8977067e-06 1.3361791e-06 1.1456453e-05
2.0633408e-05 4.789675e-06 4.205562e-06 1.3838135e-05 2.6456059e-05 1.4820023e-05 2.2373577e-05 7.514255e-06
6.145054e-06 1.1068042e-05 8.416749e-06 3.1698587e-06 9.761718e-06 3.9056745e-06 4.463457e-06 3.218358e-06
5.085944e-06 7.382447e-06 9.781813e-06 8.30341e-06 1.7102035e-05 4.5121524e-06 2.3205096e-06 2.8203688e-06

layer1.1.bn1.weight f4 [64]
00000000: 8531 183d 74ab 6d3d 1bbb 493d b2db 743d
00000010: 7d34 253d 7e3c 1a3d 1833 323d 8123 303d
00000020: be63 5d3d 80b5 413d 404a 253d 257c 123d
00000030: 3b81 733d b0b0 2b3d a900 6b3d a3b8 283d
00000040: 27df 623d 96ee 2a3d b8cc 3f3d cdef 2f3d
00000050: 43f9 573d f415 643d f98a 1c3d 93b9 523d
00000060: 26f5 373d 0e75 213d 9113 293d 88c1 393d
00000070: 0975 3b3d b60e ec3c 49c3 273d d298 743d
00000080: 799d 4e3d 4746 113d a786 b83d b081 583d
00000090: 3e3a 493d a8ec 5b3d 6098 233d b977 b73d
000000a0: e767 3c3d e1ef 133d ce8d 213d 7f84 553d
000000b0: 0d09 753d 8b36 833d 0d70 193d 9639 343d
000000c0: ba76 443d d4b8 2b3d e89e 273d 2cc5 4e3d
000000d0: 8272 333d d900 333d f218 5d3d 3782 423d
000000e0: 2259 283d fe5c 3f3d fd2b 663d dcd3 623d
000000f0: f9ab 743d f688 583d 19f6 133d 5544 423d
0.0371566 0.05802484 0.049250703 0.05977983 0.04033326 0.037655346 0.043505758 0.04300261
0.0540502 0.047292233 0.040354013 0.035762925 0.059449416 0.04191655 0.057373676 0.04119171
0.055388596 0.04173144 0.046826094 0.0429533 0.05272795 0.055685 0.038218472 0.05144651
0.044911526 0.039418273 0.041278426 0.04535058 0.04576591 0.028815608 0.040957723 0.059716053
0.050443146 0.035467412 0.09010058 0.052858055 0.04912781 0.05369249 0.039940238 0.08958382
0.045997526 0.03611744 0.039441876 0.05212831 0.059823085 0.064068876 0.037460376 0.04400023
0.04796479 0.041924313 0.04092303 0.050481007 0.043810375 0.04370198 0.053978868 0.047487464
0.04110063 0.046719544 0.056194294 0.055377826 0.05973432 0.05286499 0.03612337 0.047428448

layer1.1.bn1.bias f4 [64]
00000000: cd4f 55bb 6435 e5bc 6e2f 7abc 4078 cebc
00000010: 5b02 a2bb 728a deba 3a50 cabb 7262 95bb
00000020: 259d b3bc d22a 50bc 441c fcba 9f2e 5fbb
00000030: b304 11bd a80b 82bb f2db dabc 4567 07bb
00000040: 4d39 abbc b5a1 1dbb ad34 4bbc bf89 8fbc
00000050: c836 80bc ed85 babc f08a 98ba d7bd c6bc
00000060: b13a dabb b55d 6ebb 678c 82bb e6b6 1fbc
00000070: 73a6 bbbb 3ccf d43c e978 34bb 0147 b7bc
00000080: 0257 96bc 23db cdbb 24ac a7bd b731 b9bc
00000090: 290d 6bbc 697b 66bc 8bf7 acbb ae2d 88bd
000000a0: 9c9c ddbb 7909 4cbb b0b5 94bb 904d 9bbc
000000b0: 481e b3bc d2fe e4bc 2cf2 b63b 66a5 fdbb
000000c0: 873a 8fbc 8e96 96ba a37e b5bb f29a 62bc
000000d0: 421c 01bc f581 3fbc 4a4b afbc 9de7 03bc
000000e0: febd febb d653 49bc a38b d7bc 44a8 9ebc
000000f0: 2982 06bd f55d c5bc 4f74 2bbb 0b29 56bc
-0.0032548786 -0.02797956 -0.015270097 -0.025203824 -0.0049441285 -0.0016978516 -0.0061741145 -0.0045588547
-0.021925518 -0.012705522 -0.0019234498 -0.0034054888 -0.035404872 -0.0039686747 -0.026716206 -0.0020660919
-0.020901347 -0.0024052684 -0.012402696 -0.017521737 -0.015651122 -0.022768939 -0.0011638086 -0.024260445
-0.0066598286 -0.0036371772 -0.0039840224 -0.009748196 -0.0057266294 0.025977723 -0.0027537888 -0.022372724
-0.018352035 -0.0062822266 -0.0818713 -0.022606714 -0.014346399 -0.014067509 -0.005278533 -0.06649338
-0.006763054 -0.0031133576 -0.0045382604 -0.018957883 -0.021865025 -0.027953539 0.0055830684 -0.0077406643
-0.017483963 -0.0011488961 -0.005538778 -0.013830887 -0.007880272 -0.011688699 -0.021398205 -0.008050826
-0.0077741137 -0.012288054 -0.026311701 -0.019367345 -0.032838974 -0.024092654 -0.0026161855 -0.013071309

layer1.1.bn1.running_mean f4 [64]
00000000: 51b2 8839 8c73 1bbb feca 82b9 7e74 fdba
00000010: 9aba 06bb 0c5f 0abb d00b 9cba e6dd cdba
00000020: 23a0 d4b9 4568 71bb ea56 dcba 6312 353a
00000030: 57be f9b9 4f56 48ba c918 20bb 8af5 19b9
00000040: 849b 6abb 4f98 29ba 7934 28bb 9ec0 9d3b
00000050: fa81 6fbb 5748 7fbb bd63 2b3a a176 d5ba
00000060: 0168 e9ba 54ce 37ba a261 d6ba faa6 f2ba
00000070: 3397 4aba 43d1 893b d106 31ba f073 1abb
00000080: a988 5fbb 6319 c73a 806b 83bb 52a2 55bb
00000090: a4af 02bb 301d 21bb e0a9 efb9 0c33 82ba
000000a0: 501a 5e39 d28c 1bbb a433 30bb 8367 5bbb
000000b0: 1c7a b3ba d8d3 2cbb e32b 31bb eb0d a6ba
000000c0: 5e19 873b fe92 1ebb 9497 d8ba 80c9 6abb
000000d0: 360c aa39 b1d3 9cba 0b85 4abb 5f0c 0ebb
000000e0: eba0 63ba b0dd 03bb 1891 acb8 73a8 00bb
000000f0: b0c3 83bb 7a38 28ba 0078 c339 48a9 a5ba
0.00026072797 -0.0023719994 -0.00024946773 -0.0019337086 -0.0020558 -0.0021113781 -0.0011905376 -0.001570639
-0.00040555102 -0.003683583 -0.001681057 0.0006907342 -0.00047634795 -0.00076422555 -0.0024428836 -0.00014682687
-0.003579826 -0.0006469534 -0.0025666042 0.0048142215 -0.0036545978 -0.003895303 0.00065379945 -0.0016285965
-0.0017807485 -0.0007011641 -0.0016356001 -0.0018512898 -0.0007728219 0.004205854 -0.000675303 -0.002356764
-0.0034108555 0.0015190061 -0.0040106177 -0.003259797 -0.0019941116 -0.0024584047 -0.000457122 -0.0009933426
0.00021181372 -0.0023735058 -0.002688625 -0.0033478446 -0.0013693008 -0.0026371386 -0.0027034215 -0.0012668943
0.004122897 -0.00241965 -0.0016524666 -0.003582567 0.00032434025 -0.0011964944 -0.0030902054 -0.0021674854
-0.00086833414 -0.002012115 -8.228625e-05 -0.0019631654 -0.0040211305 -0.0006417107 0.00037282705 -0.0012638951

layer1.1.bn1.running_var f4 [64]
00000000: fe39 2337 3fe3 2e37 c4bc 1437 a48d 0f37
00000010: c4b4 2837 564d 2b37 2ba5 af37 e1b3 2837
00000020: 9532 fc36 7e99 8937 4637 a837 9dc5 8137
00000030: c805 1637 b796 4e37 55d2 9037 9cdc 5437
00000040: 0b75 4c36 9ebd 6737 09ba 4b37 1c47 d636
00000050: 5095 8737 4e92 2c38 4fc6 a637 599e df37
00000060: 662a 5037 4328 4237 8e78 ce37 466e 3637
00000070: 76b6 3437 5c83 e136 a319 7b37 1553 6637
00000080: 3b58 c137 e8da cb36 6242 0937 52fa 4538
00000090: 9048 e237 b997 f336 c4e8 2037 1d27 a736
000000a0: d789 3e37 826c f136 ed94 4537 51d3 9637
000000b0: ce1f 0b37 4957 4837 dc64 6f37 f071 1937
000000c0: 60a6 9136 646a fc36 613c 6037 9696 8737
000000d0: 825e ad37 fd36 4b37 772f 2f38 71c5 fd37
000000e0: 8ac4 2037 8ede f736 7655 9137 cf5d 0237
000000f0: 393e a137 3f7e b437 da0a b137 1f6c 1937
9.7290595e-06 1.0424118e-05 8.865438e-06 8.5564425e-06 1.0055668e-05 1.02104e-05 2.0938538e-05 1.0055462e-05
7.5160738e-06 1.6403148e-05 2.00529e-05 1.547002e-05 8.942043e-06 1.2313648e-05 1.7264081e-05 1.2687549e-05
3.0466497e-06 1.3812822e-05 1.2143058e-05 6.385975e-06 1.6162783e-05 4.1144252e-05 1.9881087e-05 2.6657408e-05
1.2407638e-05 1.1572675e-05 2.4613251e-05 1.087372e-05 1.0771319e-05 6.720815e-06 1.4966735e-05 1.3728412e-05
2.3048478e-05 6.0753555e-06 8.181292e-06 4.720159e-05 2.6975089e-05 7.259627e-06 9.590938e-06 4.981541e-06
1.1356976e-05 7.1949917e-06 1.17767895e-05 1.7979795e-05 8.292451e-06 1.1941252e-05 1.4268993e-05 9.146039e-06
4.3407053e-06 7.5225707e-06 1.33654985e-05 1.6163376e-05 2.0667216e-05 1.2112546e-05 4.1767456e-05 3.0251891e-05
9.5825035e-06 7.3870824e-06 1.7325143e-05 7.770445e-06 1.922167e-05 2.151646e-05 2.1105097e-05 9.144685e-06

layer1.1.bn2.weight f4 [64]
00000000: a84d 4d3d dcd4 b23c 2820 033d a75d a73d
00000010: 9775 713c e877 9c3d 996f 7a3d 1fde e7b7
00000020: 75c7 373d 4321 923d 6741 943d f6e2 693d
00000030: c222 5a3d 21e9 943c 002f bd3c f338 f63c
00000040: 54b6 953d 72aa 833d 18a6 853d 6fb8 823d
00000050: 4882 933d 55cf 1c38 333a b03d b08a 733d
00000060: f6c5 9b3d a4c0 873d d4b7 7b3d 0bab 833d
00000070: 65c3 79bb c5d6 6a3d 2895 903d a83c c43c
00000080: 1bc2 5f3d 8129 0d3d 42af 7c3d d6bc 8e3d
00000090: 04cd 9e3d ddc2 543d f805 843d d917 6d3d
000000a0: 6822 213d ef2c 883d 7868 4a3d 9982 603d
000000b0: 6027 093d 26fd 673d 5811 8aba 8da0 603d
000000c0: 8a90 9b3d ab4b 4f3d 08a4 023d 421b 7c3d
000000d0: 9bd3 003d 9252 833d deca 653d d735 853d
000000e0: fcaf 383d 11e1 403d 284b 333d 5561 723d
000000f0: 6e17 4c3d 200b 7f3d 1948 8d3d 831d 853d
0.050122887 0.021830015 0.03201309 0.0817216 0.014737508 0.07640058 0.061141584 -2.7640779e-05
0.04486795 0.071352504 0.07239037 0.057101212 0.053255804 0.01817757 0.0230937 0.030056452
0.07310167 0.06428994 0.065258205 0.06382834 0.072025836 3.738639e-05 0.086048506 0.059458435
0.076061174 0.0662854 0.06145461 0.06429108 -0.003811085 0.057333726 0.07059699 0.023954704
0.054628473 0.03446341 0.061690576 0.06969611 0.077539474 0.05194365 0.06446451 0.05788407
0.039339453 0.066491954 0.049416035 0.054812048 0.033484817 0.056637906 -0.0010533733 0.054840613
0.07595928 0.050609272 0.031894714 0.061549433 0.031451803 0.064122334 0.056101672 0.0650441
0.045089707 0.04708964 0.043772846 0.059174854 0.04982703 0.06226647 0.06898517 0.064997695

layer1.1.bn2.bias f4 [64]
00000000: bc3c 8d3b 6b17 e93b 33ee ba3b 42ba 11bd
00000010: d099 48bb 4d12 0bbd 0b96 403c 3843 9839
00000020: 8a1f dd3b 47c2 05bd 488b 30bd 1b60 ea3c
00000030: a433 eb3c a82a 733c af6b f53b 38f9 a83a
00000040: a677 f0bb f6d6 2abd 25f5 41bc 589b 60bc
00000050: 7e28 d3bc 1336 03bc 52c6 04bd cbb1 c4bc
00000060: ffcc 07bd 2509 a5bc 78d6 d9ba 176d 60bc
00000070: 9e73 12b9 6d54 c6ba 3df3 c4bb a3a8 ae3a
00000080: 5512 43bb d2f1 7dbb a984 cebc 58f1 dcbc
00000090: d416 aabc 0523 1c3c 7093 07bd 5a14 06bc
000000a0: 569f 87ba 6db2 afbc 27e1 b93c 6329 33bb
000000b0: 7372 96ba 020d 81bc 4fb8 4838 79e4 c7bc
000000c0: 164a 7ebc 67f4 3dbc 59df 603b 6cfa 8dbb
000000d0: f3a8 19bb 495e cebc 798e 693c fdc5 143c
000000e0: 061b c4ba 73d5 5a3c b0b9 8a39 e4f1 52bc
000000f0: f748 d7bb 7a07 50bc 58dd 963a aa81 0abc
0.0043102186 0.0071133873 0.005704665 -0.03557802 -0.0030609258 -0.033953 0.011754523 0.0002904178
0.0067481445 -0.03265598 -0.04310158 0.02861028 0.028711148 0.014841713 0.0074896435 0.0012891656
-0.007338482 -0.04170891 -0.011838232 -0.013708912 -0.025776144 -0.008008498 -0.032415695 -0.02401056
-0.033154484 -0.020145962 -0.0016619703 -0.013697884 -0.00013966716 -0.0015131362 -0.0060104416 0.0013325404
-0.0029765565 -0.0038748872 -0.025209742 -0.02697055 -0.020762838 0.009529834 -0.03309959 -0.008183563
-0.0010347168 -0.021447385 0.022690369 -0.00273379 -0.00114782 -0.015753273 4.7855367e-05 -0.024400936
-0.015520593 -0.011593915 0.0034312813 -0.004332831 -0.002344665 -0.025191443 0.01425516 0.009080407
-0.0014961667 0.013356554 0.0002645976 -0.012875054 -0.0065699774 -0.012697095 0.0011510057 -0.008453766

layer1.1.bn2.running_mean f4 [64]
00000000: f725 1cbb 285a 7b3a a5a2 0d36 cbed 3fbb
00000010: 5c46 0dba 071e 49bb ddb1 a6ba d7c3 20b6
00000020: 3270 a2ba cd3b e1ba dc65 40bb 7dbf 26ba
00000030: e648 493a b765 0ebb 8b50 603a 113c 3fba
00000040: 302c c2ba 6929 af3a 0d57 18bb 7472 cdba
00000050: 340f edba b8c3 d933 5ea6 47bb 4851 37ba
00000060: dcc8 81bb c900 b4ba 5634 a4ba 2026 18bb
00000070: f1a5 2039 9564 4eba 74e5 ddba ccd5 e739
00000080: 3052 c5ba a6ac acba 1535 e5ba 5798 29bb
00000090: a6ed 32bb 2e6d 943a bfbc e938 c641 0bbb
000000a0: 87eb fcb9 2078 adba d942 703a 830a 09bb
000000b0: f04f 8cba 7e4b f6ba 90bc dc36 af73 09ba
000000c0: 9750 1ebb dac7 0eba 3211 91b9 a6fd 0dbb
000000d0: c16b 5aba 2c94 24bb 2b32 85ba da26 b9ba
000000e0: 1fa6 003a 0065 a2ba 0484 6bba a044 2fbb
000000f0: 9c5c bbba 7f9a ecba d6ec 0abb 9d35 08bb
-0.002382634 0.00095883245 2.1105309e-06 -0.0029286023 -0.00053892075 -0.0030688064 -0.0012717802 -2.3955852e-06
-0.0012393056 -0.001718396 -0.0029357588 -0.00063609314 0.0007678404 -0.0021728107 0.0008556924 -0.00072950224
-0.0014814194 0.0013363782 -0.0023245246 -0.0015674368 -0.0018086196 1.0140451e-07 -0.0030464153 -0.0006993008
-0.003960712 -0.0013733144 -0.0012527804 -0.0023216084 0.00015320607 -0.0007873264 -0.0016929344 0.00044219045
-0.0015054401 -0.0013174012 -0.0017487133 -0.0025878155 -0.0027302294 0.0011324042 0.000111454625 -0.002124892
-0.00048240667 -0.0013234653 0.00091652345 -0.0020910806 -0.0010704976 -0.0018790809 6.5784625e-06 -0.00052433735
-0.0024156922 -0.00054466503 -0.00027669367 -0.0021666079 -0.00083320966 -0.0025112731 -0.0010162046 -0.0014125959
0.00049075665 -0.001238972 -0.00089842104 -0.0026743785 -0.0014294568 -0.0018051415 -0.0021198294 -0.002078391

layer1.1.bn2.running_var f4 [64]
00000000: 7b2e 8036 e353 db36 7ba1 e136 e239 a936
00000010: 35fe 5a36 22dc ba36 ae02 9936 692a 642c
00000020: 200a 9636 68fa 8536 7477 8b36 ed18 4036
00000030: 18f6 9136 cc6e a435 0a28 ce36 bc85 1636
00000040: cca9 ca36 4e01 2636 6f37 de36 9742 a936
00000050: 9d66 b736 b3d2 272c 210e a536 725b a836
00000060: 9be9 b836 86d0 ed36 f5a2 9436 9487 de36
00000070: 8480 1b34 29e5 ac36 f6b5 d636 8dd2 8836
00000080: dc0d 8d36 d9fc 0a36 8753 b736 82bf 9236
00000090: db9e bf36 de11 7736 c8d8 3536 9da9 8d36
000000a0: d8ce 0f37 0bc5 8836 6468 c336 9341 8d36
000000b0: 3c64 dd36 84c4 8d36 77cf 9531 db2f 8036
000000c0: 050c e336 df4b 6736 ac8a d836 a37a 4a36
000000d0: 1ff6 1436 69f3 a636 c230 9336 a53f 7b36
000000e0: 2081 9836 f318 4936 d74b 6236 96d5 ca36
000000f0: 50f3 fd36 5e76 7d36 7a61 c836 4e24 c636
3.8201083e-06 6.5364743e-06 6.7243213e-06 5.043331e-06 3.26325e-06 5.568859e-06 4.5600673e-06 3.2424291e-12
4.471527e-06 3.99286e-06 4.156429e-06 2.8624738e-06 4.349986e-06 1.2251198e-06 6.1439396e-06 2.2429585e-06
6.039836e-06 2.4736687e-06 6.622569e-06 5.0443446e-06 5.4657708e-06 2.384909e-12 4.919028e-06 5.017436e-06
5.5108226e-06 7.0874257e-06 4.4297144e-06 6.631899e-06 1.4482254e-07 5.152677e-06 6.39888e-06 4.077627e-06
4.203741e-06 2.071078e-06 5.463549e-06 4.3734335e-06 5.710737e-06 3.6816268e-06 2.7097285e-06 4.221873e-06
8.571624e-06 4.0760547e-06 5.8236055e-06 4.2097613e-06 6.597982e-06 4.225005e-06 4.3600568e-09 3.8202684e-06
6.7665264e-06 3.4465845e-06 6.453445e-06 3.017173e-06 2.219698e-06 4.975522e-06 4.3866175e-06 3.743896e-06
4.544985e-06 2.9965856e-06 3.372077e-06 6.044934e-06 7.568313e-06 3.7768837e-06 5.9718122e-06 5.9050863e-06

layer2.0.bn1.weight f4 [128]
00000000: 2a1e 073d 5bf2 ea3c 5f47 473d 7a93 123d
00000010: 4237 243d ca61 0a3d b7fc 0e3d 7425 373d
00000020: 9543 163d 559f 123d e9d4 1c3d f503 133d
00000030: ab09 1c3d 6d27 1b3d fcf6 033d 866d 4a3d
00000040: fe9b 153d ade5 1e3d 6e29 163d 5375 163d
00000050: 710c 223d f015 063d 14ea 1f3d 7205 183d
00000060: 974d 293d f386 af3c db46 d93c 1921 0f3d
00000070: a58d e13c 901a 1c3d f3d7 093d ce89 053d
00000080: 86d9 143d ca66 203d d4b0 1d3d ab62 c43c
00000090: 8a1e 4a3d 6a17 0e3d dc00 4b3d ed62 2f3d
000000a0: ffcf cd3c 523b 193d a9be da3c e2d4 123d
000000b0: 4a32 3c3d 3434 163d 0c30 ee3c cf04 1f3d
000000c0: 4042 133d e8ed d93c 115d 073d 366b 133d
000000d0: 1b58 173d f09c 233d 6a1e 063d fd2c 243d
000000e0: 6f5b 1d3d 1ade 1c3d cd8b 143d 60f1 373d
000000f0: 6a76 2b3d 2c86 d93c 4f86 183d 505d 183d
00000100: c68d 353d a6f4 1f3d a037 143d 8e72 223d
00000110: 353f cc3c 2909 073d c481 313d 09c2 3b3d
00000120: 48bf 1f3d 264f 073d c30c 243d ab15 dc3c
00000130: ce8f 173d ec1a e13c df09 1d3d 3306 cb3c
00000140: 04e2 2c3d b51e 383d a14c 0d3d 23fa a53c
00000150: a366 103d 5327 1d3d 57f6 3d3d a31b 0d3d
00000160: 3ea6 1b3d e61a 2b3d 1dbe 183d fdc2 033d
00000170: d321 0c3d f057 213d c506 193d 68a3 163d
00000180: 8ec7 163d efd2 1d3d 0119 0f3d a8d2 f53c
00000190: 810e 0c3d 296b 183d f41b 193d 0f0e 0c3d
000001a0: ccbd f63c 17dc 183d 2f14 1d3d ab9c 053d
000001b0: b6db 0f3d 2de5 0e3d a4c4 153d 1ac0 283d
000001c0: 8056 083d 8c05 0a3d bbed 783d eee9 0d3d
000001d0: 7f49 173d 637c 0d3d 8c9c 203d 526c 4b3d
000001e0: aee0 cc3c b294 413d b5de 143d 6c82 173d
000001f0: 8a7e 203d a840 223d 9210 ff3c 1494 d83c
0.03298775 0.028680017 0.04865205 0.035785176 0.04009176 0.033784665 0.034908976 0.044713452
0.036685545 0.035796482 0.038288984 0.035892446 0.038095158 0.037879396 0.032217965 0.049420856
0.03652572 0.038793255 0.036660604 0.036732983 0.039562646 0.032735765 0.039041594 0.037114568
0.04133376 0.021426653 0.026523044 0.034943674 0.027533362 0.03811127 0.03365321 0.032602124
0.03634026 0.039160527 0.038498715 0.02397283 0.04934553 0.0346903 0.049561366 0.042818952
0.025123594 0.037410088 0.026702242 0.035847552 0.045946397 0.03667088 0.029075645 0.038822945
0.035951853 0.0266027 0.03304774 0.035990916 0.03694926 0.03994459 0.03274385 0.040081967
0.038417276 0.03829775 0.036266137 0.044907928 0.041860975 0.026553236 0.03723746 0.037198365
0.04432466 0.039051674 0.03618586 0.03966003 0.024932483 0.03296772 0.043336645 0.045839343
0.03900078 0.033034466 0.040051233 0.0268658 0.037002377 0.027478658 0.038339492 0.02478323
0.042207733 0.04495116 0.034496907 0.020260876 0.035254132 0.03836758 0.046377506 0.034450185
0.038000338 0.0417737 0.03729068 0.032168377 0.034211945 0.039390504 0.03735997 0.03677693
0.036811404 0.03853124 0.034935955 0.030007675 0.03419352 0.03721157 0.037380174 0.034193095
0.0301198 0.03731927 0.038349327 0.032620113 0.035121642 0.034886528 0.036564484 0.041198827
0.033285618 0.033696696 0.060773592 0.03464692 0.036935326 0.034542453 0.039211795 0.04966385
0.02500948 0.047260948 0.036345202 0.036989614 0.039183177 0.039612442 0.031135831 0.026437797

layer2.0.bn1.bias f4 [128]
00000000: 0bef bebb 33ba 1b3b 2b33 c5bc 0f0e 7abb
00000010: d12c 84bb ead2 90bb c4dc dfbb 86b3 49bc
00000020: dd59 983a d8c6 a4bb 321b 09bc fb33 c8bb
00000030: b110 80ba 6922 ceba 65f0 34b9 c1f6 9fbc
00000040: f3a7 edbb cadd 76bb 59a0 ddba 5e42 0cbc
00000050: f309 d4bb 1679 cabb ba74 2cbc 8888 52b9
00000060: 3131 2ebc 4827 1f3d 712c cf3b 774d cbbb
00000070: a05a c73c 33ca 48bb dd8a e13a bd88 fcba
00000080: 70b6 f2bb 4ce4 68bb 06e1 9dbb 12e5 dd3c
00000090: ba64 03bd ff41 a23a 20a2 09bd be63 2fbc
000000a0: a9df 293b 4503 f7ba c36e a6ba 45d3 53bb
000000b0: ccf4 49bc b5a0 2eb9 d6ac 5239 8fd0 75bb
000000c0: 3120 97ba 4d1e a2bb 0bb5 4fbb 8ea5 61bb
000000d0: 8e7b 0fbb 9afe fcbb 56b2 f2ba e840 6abc
000000e0: 55f1 f9bb 4ba5 dfbb 397f d1bb 4b40 5abc
000000f0: 0554 91bc 69a6 5a3c 2cb1 9bba 4dd5 60bb
00000100: 3973 2dbc 9f6c 12bc c3c0 00bc 8d0c 24bc
00000110: a0b0 f03b b91a fb3a 174d 00bd 74fe 89bc
00000120: eabc c2ba f0a6 e6ba c1a4 57bc fda2 edba
00000130: 6ff7 73bc 0e72 7d3c 0ae5 0bbc b7af c73c
00000140: aff4 d7bb 16e1 a0bc d087 d5bb 62a3 eb3c
00000150: 7a27 8fbc 4403 0abc 483d a7bc 1fdd 45bb
00000160: a152 15bc fba7 05bc 3cf1 e03a 77e3 1bbc
00000170: 8176 7abb 8c49 a6bb e69e d3bb faca 91ba
00000180: e790 08bb 4788 09bc 2f88 84bb 0136 bd3b
00000190: 6b80 c2b9 525d 87bb b97b aabb 6b98 92bb
000001a0: c966 c93b 043f 94bb c6b4 daba 4ebb 343a
000001b0: 7cba 91bb b942 a9bb 0526 bfbb 32e5 3dbc
000001c0: 3822 cdba 6291 2dbb 2ce7 8cbd d0f3 e7ba
000001d0: f715 96ba 0fc1 76bb c546 80bb 5d12 05bd
000001e0: 1fb0 e53c d52a 75bc cd09 fb3a ea32 68ba
000001f0: 6f34 b6ba a351 b7ba 0b60 c83b c670 0b3c
-0.005826836 0.0023762106 -0.02407225 -0.0038155352 -0.004033663 -0.004419674 -0.0068317372 -0.012310868
0.0011623461 -0.005028587 -0.0083683 -0.006109712 -0.00097706 -0.0015726808 -0.00017255692 -0.019526841
-0.007252687 -0.0037668818 -0.0016908749 -0.008560745 -0.0064709126 -0.0061789853 -0.010525877 -0.00020078022
-0.010631845 0.03885582 0.0063224365 -0.006204303 0.024335206 -0.0030638098 0.0017207522 -0.0019266825
-0.007407002 -0.0035536466 -0.0048180846 0.027086768 -0.032078482 0.0012379288 -0.03360188 -0.010704933
0.0025920665 -0.0018845579 -0.0012697804 -0.0032321971 -0.0123264305 -0.00016653801 0.00020091547 -0.0037508344
-0.001152998 -0.00494746 -0.0031693603 -0.0034430954 -0.0021893713 -0.0077207806 -0.0018516283 -0.014297701
-0.007627646 -0.0068251244 -0.00639334 -0.013320993 -0.017740259 0.013345339 -0.0011878363 -0.0034306825
-0.010586553 -0.00893703 -0.007858458 -0.010012758 0.007345274 0.0019157744 -0.03132352 -0.016844966
-0.0014857326 -0.0017597359 -0.013161839 -0.0018130239 -0.014890536 0.015469087 -0.008538494 0.02437578
-0.006590448 -0.01963858 -0.0065164343 0.02876443 -0.017474879 -0.00842363 -0.020414963 -0.0030191613
-0.009113939 -0.008157725 0.0017161737 -0.009514681 -0.0038217606 -0.0050746854 -0.006458151 -0.0011123114
-0.0020838322 -0.008394307 -0.0040445547 0.00577426 -0.00037098242 -0.0041309977 -0.005202737 -0.004473736
0.006146286 -0.0045241136 -0.0016685955 0.00068943657 -0.0044472795 -0.0051654247 -0.0058333897 -0.011590289
-0.0015650457 -0.002648436 -0.0688003 -0.0017696563 -0.0011450638 -0.0037651693 -0.0039146864 -0.032488216
0.028038083 -0.014963825 0.0019152701 -0.00088576844 -0.0013901124 -0.0013986122 0.006114965 0.008510774

layer2.0.bn1.running_mean f4 [128]
00000000: cac0 9bba 3f3c 6db9 603b b0ba 7985 243a
00000010: 35ac 32bb 05eb acba 9861 88ba 39f8 fcb9
00000020: b3d5 a8bb 4fa7 a13a 861b 8b3b 72c9 b4ba
00000030: c23b ca3a 24d6 3c39 2baa 56bb 5649 47b9
00000040: efa8 40b9 ef3b bcba 4654 1aba 51d5 c539
00000050: 0f32 1837 76ef b6ba 1606 00ba 90af f039
00000060: 0bc2 a539 0aea e6bb c3b9 633a 75fe edba
00000070: 0f05 38bb 0472 3b3a 890d f039 75b2 303a
00000080: 3ce5 32bb 5356 9338 2e20 daba b371 c8bb
00000090: e601 4e3a afd5 eeba 74b5 323b 0384 43ba
000000a0: a6fc 33b9 793f b1ba af2e 52ba 1020 b7ba
000000b0: f366 07bb 3a1a 7e38 4fac 423c cc57 acb9
000000c0: e746 453b 9498 b4ba 99a0 72bb b549 5739
000000d0: 8663 3fba aa43 c4ba 0c36 d1b9 eebf 073a
000000e0: 26ca 9eb9 ee28 04ba e438 36b9 3379 b2b8
000000f0: 5b6a 3cba 2157 133c 764a ab38 bcc1 24ba
00000100: 09da 37ba 4577 51ba 0f7b bebb c14e ebba
00000110: 6cda c4bb 41da 06ba 473e 13bb ea27 85b9
00000120: 160f 8539 560a 20ba b20b f1b8 9358 1eba
00000130: 0cac b339 7e7a 053c 6579 083a 5c79 16bc
00000140: 279a 95ba e309 33bb 6890 f7b8 59f6 1fbc
00000150: 580a 003a 2086 3a39 ca4f 693b cf95 3cbb
00000160: 1091 9cba c097 e5ba 71cc 1139 4486 13bb
00000170: a910 c43a 5dec 1dba 6794 c4ba 5563 55ba
00000180: 6d1d 533a c6e9 efba 724b 52ba d336 84b9
00000190: bb61 89bb e217 203a e1fa 6fba 598a 9db9
000001a0: cff9 14bb a2b7 1cba 4c00 feb8 69a9 4338
000001b0: b4a5 143a 893b 273b 7f01 36bb 88f8 f4ba
000001c0: 4309 9ab8 5692 033b 4552 2e3b cc11 0c3a
000001d0: 0d2d b339 493d 84ba 50ef 8db9 d3e7 233a
000001e0: 8395 06bc e1b5 28bb 6e29 7eba 872a 6a39
000001f0: 6ff5 2e3a 729c 073a 69b9 3f3b be74 923a
-0.0011883017 -0.00022624525 -0.001344543 0.00062759925 -0.0027263288 -0.00131926 -0.0010405062 -0.00048250126
-0.005152428 0.0012333187 0.0042452244 -0.0013792946 0.0015429186 0.00018008851 -0.0032755237 -0.00019005439
-0.0001837348 -0.0014361123 -0.00058871915 0.000377337 9.071561e-06 -0.0013956863 -0.00048837194 0.0004590717
0.00031615826 -0.0070469426 0.00086870434 -0.0018157499 -0.0028079187 0.00071504735 0.00045786452 0.00067404594
-0.002729728 7.0255854e-05 -0.001664167 -0.0061170696 0.0007858559 -0.0018221642 0.00272688 -0.0007458331
-0.00017164889 -0.0013522945 -0.00080178207 -0.0013971347 -0.0020660728 6.0582744e-05 0.011881902 -0.0003287181
0.0030102076 -0.0013778382 -0.0037021993 0.00020531456 -0.0007300902 -0.0014973779 -0.00039903854 0.0005178441
-0.0003028672 -0.00050414994 -0.00017378066 -8.5102765e-05 -0.0007187479 0.008992941 8.167785e-05 -0.0006284972
-0.0007013386 -0.000799049 -0.0058130096 -0.0017952548 -0.006007483 -0.00051442167 -0.002246754 -0.00025397475
0.00025378977 -0.0006105056 -0.00011493954 -0.000604042 0.00034269725 0.00814688 0.00052060775 -0.009184208
-0.0011413739 -0.0027319125 -0.000118047756 -0.009763324 0.0004884354 0.00017788308 0.0035600537 -0.0028775816
-0.0011945087 -0.0017516539 0.00013904438 -0.0022510448 0.0014958578 -0.00060242956 -0.0014997841 -0.0008140107
0.0008053396 -0.0018303923 -0.00080221065 -0.0002521785 -0.0041925586 0.00061070744 -0.00091545103 -0.0003004845
-0.0022731905 -0.0005978291 -0.00012111719 4.66494e-05 0.00056704436 0.0025517663 -0.0027771888 -0.0018689791
-7.3450174e-05 0.0020076237 0.002659933 0.0005343228 0.00034175106 -0.0010089065 -0.00027071917 0.0006252501
-0.008214357 -0.0025743174 -0.00096955046 0.00022331822 0.00066741457 0.00051731535 0.00292548 0.0011173708

layer2.0.bn1.running_var f4 [128]
00000000: ea82 9c37 36ec 9037 c976 7737 29de 6137
00000010: 7fb0 be37 512b ca37 95f0 5037 28e3 0538
00000020: 4f63 ab37 3991 e637 06e4 a137 dfc0 c337
00000030: c489 0038 67fa 0a38 8718 3038 cbcf 9c37
00000040: 0a14 0038 4c28 4a38 b289 fd37 8e51 9637
00000050: 6ed3 6637 24f9 1c37 f094 0637 3731 f837
00000060: db53 9237 5187 3538 206c ba37 fa09 7a37
00000070: b0c9 1f37 298c f237 2b44 5437 fe50 9337
00000080: 40a7 df36 8552 3f38 6c72 9737 e951 5738
00000090: b23b 2437 b4c2 b437 ad90 4e37 ce7c ad37
000000a0: f5d8 5337 d308 8737 f12f 4937 915a 0838
000000b0: f9cb 4b37 cd00 0738 67cb c937 5218 f737
000000c0: 821a 8537 3482 1c37 bb7a d037 6f32 0838
000000d0: f3c8 c637 12f3 3737 b393 9c37 2d7d 1237
000000e0: 340a b037 80e6 a637 ad23 9c37 3eb7 6337
000000f0: 44f2 a937 be0b 2d37 6fff f337 48f6 ea37
00000100: 7c52 4137 c07c a837 03db be37 93ee 0e37
00000110: c219 1037 794d b737 29ae 1c37 3729 2937
00000120: a21c 1938 ebfc 8037 ad8d cc37 a18e 0a37
00000130: b6be 7337 8b3a 6037 64df 1c38 c73a 6738
00000140: 6382 7e37 c138 9c37 1125 c837 d14a aa37
00000150: 2323 5537 5d95 cd37 386e 8037 af7d 6e37
00000160: 6ee4 c637 7ec6 c137 848f 3a38 6df2 8437
00000170: 8d80 9837 5fe8 c837 7cf8 8037 bab5 6537
00000180: 414d c637 cc73 8237 3dfd 9937 04b8 b437
00000190: 4cb1 d237 ead3 9f37 1767 ff37 25fd 9437
000001a0: c9a0 f337 9ccc 0238 8878 1738 7a41 8437
000001b0: fc9c c837 3ddb 1a37 70e4 b137 1977 ec36
000001c0: e817 4d37 10ce b837 cff0 2037 b056 9437
000001d0: 2c8e 1838 c03f a237 d061 e537 a810 2537
000001e0: 9839 7438 6cb9 8f37 4a75 8337 3976 9b37
000001f0: 2a62 0d38 6d5d 2438 e4dd 0737 178b a437
1.865761e-05 1.7276132e-05 1.4750004e-05 1.3462771e-05 2.2731952e-05 2.4100447e-05 1.2453781e-05 3.1921227e-05
2.0431033e-05 2.7485761e-05 1.9298877e-05 2.3335624e-05 3.0645882e-05 3.313497e-05 4.1984513e-05 1.869341e-05
3.053624e-05 4.8198082e-05 3.022407e-05 1.791937e-05 1.3758296e-05 9.356332e-06 8.0217e-06 2.9586821e-05
1.7443605e-05 4.3279786e-05 2.2223277e-05 1.4903484e-05 9.524098e-06 2.8913915e-05 1.2652056e-05 1.756148e-05
6.6653884e-06 4.56148e-05 1.8053885e-05 5.133628e-05 9.789061e-06 2.1548338e-05 1.2312242e-05 2.0681324e-05
1.2627094e-05 1.6097363e-05 1.1991696e-05 3.2509273e-05 1.2147234e-05 3.2187254e-05 2.4055784e-05 2.945602e-05
1.586718e-05 9.32864e-06 2.4852683e-05 3.2471897e-05 2.3697014e-05 1.0964244e-05 1.8665427e-05 8.731423e-06
2.0985586e-05 1.9896077e-05 1.8613262e-05 1.3572919e-05 2.0259184e-05 1.03143375e-05 2.9086803e-05 2.8009657e-05
1.1522901e-05 2.0085252e-05 2.275175e-05 8.519407e-06 8.589066e-06 2.1851376e-05 9.338874e-06 1.0082781e-05
3.650471e-05 1.5376563e-05 2.4384668e-05 8.258649e-06 1.4528332e-05 1.3365071e-05 3.7401347e-05 5.5129432e-05
1.5169938e-05 1.8623077e-05 2.3859118e-05 2.0300418e-05 1.270397e-05 2.4507457e-05 1.5310114e-05 1.4215168e-05
2.370981e-05 2.3099823e-05 4.4479515e-05 1.5848515e-05 1.8179673e-05 2.3950064e-05 1.5374499e-05 1.3691775e-05
2.3639413e-05 1.555113e-05 1.8356945e-05 2.1543361e-05 2.5116511e-05 1.9052957e-05 3.0446374e-05 1.7760854e-05
2.9042729e-05 3.1184973e-05 3.611346e-05 1.5766116e-05 2.391496e-05 9.230161e-06 2.1206419e-05 7.047213e-06
1.2224518e-05 2.2030465e-05 9.592811e-06 1.7683342e-05 3.6372032e-05 1.934159e-05 2.7344475e-05 9.8386445e-06
5.822777e-05 1.7133272e-05 1.5671034e-05 1.8532492e-05 3.3708442e-05 3.9187657e-05 8.09829e-06 1.9615092e-05

layer2.0.bn2.weight f4 [128]
00000000: 882a 373d 4b3c 723d 443d 303d 0719 113d
00000010: a045 3d3d df9f 0a3d cd86 0a3d 11f7 b43c
00000020: 58d5 ee3c ff15 3e3d 1c71 243d d829 873d
00000030: 6a60 073d 454a 303d b0c8 0f3d ed58 113d
00000040: 1cd6 6a3d a38a 4d3d bcf3 113d be41 333d
00000050: 89ad 313d 95a6 f83c 4975 df3c ac21 203d
00000060: f8f1 2e3d 1f67 f23c 9a77 d23c 8d4f 0b3d
00000070: 877f 293d dcfb 523d 684f 833d a3d4 323d
00000080: 52b0 343d 2529 273d 9b60 183d 9998 833d
00000090: 03ac 023d e7dd 0a3d 5885 f13c 20d2 e13c
000000a0: 492c 063d 4040 e63c dc6d 2a3d 0d50 083d
000000b0: 37c9 ce3c f965 003d d464 363d 30c4 423d
000000c0: 2e85 863b 8bda 233d 47a1 203c 77d2 d83c
000000d0: a271 443d d9a2 203d d481 8a3d bcc0 083c
000000e0: fe47 183d 2c6f 183d 5bf8 e23c 2dd3 083d
000000f0: 223c 6c3d 0821 3b3d 3c4a e53c 2c18 033d
00000100: d379 6f3d 1f82 523d 708a 1c3d 7abf 2a3d
00000110: 7817 573d c7f5 2d3d bcd6 2d3d 5cff f83c
00000120: fc97 353d ce8f 043d 6835 003d f6cb 123d
00000130: e7f8 e73c bc58 243d b33c 303d 4665 623d
00000140: eb62 113d f88e 0b3d d8ec 0b3d 4022 2e3d
00000150: 3553 1b3d bbed d23c 558b 263d a50b 083d
00000160: f066 763d 87e1 1b3d 51c8 0a3d 5edd 313d
00000170: 2ec7 193d a4d6 1a3d 7d18 333d ace6 aa3c
00000180: 03d7 cf3c 1f7d b23c bef7 463d 4eb5 d03c
00000190: 2c1a 513d b8a2 f13c adc1 193d 9776 203d
000001a0: 986c 153d 12f2 d23c 8a47 dd3c ac32 1b3d
000001b0: edb6 023d af91 113d e5b5 413c 6103 143d
000001c0: bd2b 003d cdf5 6b3d ed7d 743d 9e57 493d
000001d0: e584 143d b8de 183d a86b 3b3d ccfa 573d
000001e0: 171d 233d 142c 343d f07d 393d 7a42 fe3c
000001f0: 6a7f 563d aaac fd3c f90e 3d3d 682f 2c3d
0.044718295 0.05913953 0.043027177 0.03542426 0.046208978 0.03384387 0.033819962 0.022090467
0.029154465 0.046407696 0.040146932 0.06599778 0.033050932 0.04303958 0.0351035 0.035485197
0.057333097 0.050181042 0.035632834 0.04376387 0.043378387 0.03035287 0.027277606 0.039094612
0.042711228 0.029590188 0.025691796 0.034011412 0.041381385 0.051509723 0.0641163 0.043659817
0.044113465 0.040810723 0.037201505 0.0642559 0.031902324 0.03390303 0.029482529 0.027566016
0.032757077 0.028106809 0.041608676 0.033279467 0.025242431 0.03134725 0.04452975 0.04755038
0.0041052317 0.04000334 0.0098040765 0.026467545 0.04795993 0.039217804 0.06763044 0.008346733
0.037178032 0.037215397 0.027706316 0.033404518 0.057674535 0.045685798 0.0279895 0.032005474
0.05846579 0.051393624 0.03821796 0.041686513 0.052512616 0.04247072 0.042441115 0.030395202
0.044334397 0.032363705 0.031300932 0.035839044 0.028316928 0.040123686 0.043026637 0.055272363
0.035494726 0.034071892 0.03416142 0.042513132 0.03792115 0.025748124 0.04066022 0.03321423
0.060156763 0.038056877 0.033882443 0.043424003 0.03754347 0.037802354 0.043724526 0.020861946
0.02537108 0.021788178 0.04857611 0.025477078 0.05105035 0.029496536 0.03753822 0.039175596
0.036480516 0.025750194 0.027011652 0.03789012 0.031912733 0.035539325 0.011823152 0.036136035
0.031291712 0.05760746 0.059690405 0.049155824 0.03625955 0.037321776 0.045756966 0.052729413
0.039822664 0.04398735 0.04528612 0.031037558 0.052367605 0.030966122 0.046156857 0.042037398
